_________________________________________________________________
Layer (type)                 Output Shape              Param #   
=================================================================
bidirectional_1 (Bidirection (None, 300, 64)           8960      
_________________________________________________________________
bidirectional_2 (Bidirection (None, 64)                25088     
_________________________________________________________________
dense_1 (Dense)              (None, 64)                4160      
_________________________________________________________________
dense_2 (Dense)              (None, 32)                2080      
_________________________________________________________________
dense_3 (Dense)              (None, 2)                 66        
=================================================================
Total params: 40,354
Trainable params: 40,354
Non-trainable params: 0
_________________________________________________________________

    model.add(Bidirectional(CuDNNLSTM(32,
                     return_sequences = True),
                     input_shape=(max_len, 1)))
    model.add(Bidirectional(CuDNNLSTM(32,
                      return_sequences = False)))
…
