_________________________________________________________________
Layer (type)                 Output Shape              Param #   
=================================================================
bidirectional_1 (Bidirection (None, 300, 128)          34304     
_________________________________________________________________
bidirectional_2 (Bidirection (None, 128)               99328     
_________________________________________________________________
dense_1 (Dense)              (None, 64)                8256      
_________________________________________________________________
dense_2 (Dense)              (None, 32)                2080      
_________________________________________________________________
dense_3 (Dense)              (None, 2)                 66        
=================================================================
Total params: 144,034
Trainable params: 144,034
Non-trainable params: 0
_________________________________________________________________

    model.add(Bidirectional(CuDNNLSTM(64,
                     return_sequences = True),
                     input_shape=(max_len, 1)))
    model.add(Bidirectional(CuDNNLSTM(64,
                      return_sequences = False)))
…
